{"format": "torch", "nodes": [{"name": "encoder", "id": 139741948526304, "class_name": "GroupChannelsVisionTransformer(\n  (patch_embed): ModuleList(\n    (0-1): 2 x PatchEmbed(\n      (proj): Conv2d(4, 1024, kernel_size=(8, 8), stride=(8, 8))\n      (norm): Identity()\n    )\n    (2): PatchEmbed(\n      (proj): Conv2d(2, 1024, kernel_size=(8, 8), stride=(8, 8))\n      (norm): Identity()\n    )\n  )\n  (pos_drop): Dropout(p=0.0, inplace=False)\n  (blocks): Sequential(\n    (0): Block(\n      (norm1): LayerNorm((1024,), eps=1e-06, elementwise_affine=True)\n      (attn): Attention(\n        (qkv): Linear(in_features=1024, out_features=3072, bias=True)\n        (attn_drop): Dropout(p=0.0, inplace=False)\n        (proj): Linear(in_features=1024, out_features=1024, bias=True)\n        (proj_drop): Dropout(p=0.0, inplace=False)\n      )\n      (drop_path): Identity()\n      (norm2): LayerNorm((1024,), eps=1e-06, elementwise_affine=True)\n      (mlp): Mlp(\n        (fc1): Linear(in_features=1024, out_features=4096, bias=True)\n        (act): GELU(approximate='none')\n        (fc2): Linear(in_features=4096, out_features=1024, bias=True)\n        (drop): Dropout(p=0.0, inplace=False)\n      )\n    )\n    (1): Block(\n      (norm1): LayerNorm((1024,), eps=1e-06, elementwise_affine=True)\n      (attn): Attention(\n        (qkv): Linear(in_features=1024, out_features=3072, bias=True)\n        (attn_drop): Dropout(p=0.0, inplace=False)\n        (proj): Linear(in_features=1024, out_features=1024, bias=True)\n        (proj_drop): Dropout(p=0.0, inplace=False)\n      )\n      (drop_path): DropPath()\n      (norm2): LayerNorm((1024,), eps=1e-06, elementwise_affine=True)\n      (mlp): Mlp(\n        (fc1): Linear(in_features=1024, out_features=4096, bias=True)\n        (act): GELU(approximate='none')\n        (fc2): Linear(in_features=4096, out_features=1024, bias=True)\n        (drop): Dropout(p=0.0, inplace=False)\n      )\n    )\n    (2): Block(\n      (norm1): LayerNorm((1024,), eps=1e-06, elementwise_affine=True)\n      (attn): Attention(\n        (qkv): Linear(in_features=1024, out_features=3072, bias=True)\n        (attn_drop): Dropout(p=0.0, inplace=False)\n        (proj): Linear(in_features=1024, out_features=1024, bias=True)\n        (proj_drop): Dropout(p=0.0, inplace=False)\n      )\n      (drop_path): DropPath()\n      (norm2): LayerNorm((1024,), eps=1e-06, elementwise_affine=True)\n      (mlp): Mlp(\n        (fc1): Linear(in_features=1024, out_features=4096, bias=True)\n        (act): GELU(approximate='none')\n        (fc2): Linear(in_features=4096, out_features=1024, bias=True)\n        (drop): Dropout(p=0.0, inplace=False)\n      )\n    )\n    (3): Block(\n      (norm1): LayerNorm((1024,), eps=1e-06, elementwise_affine=True)\n      (attn): Attention(\n        (qkv): Linear(in_features=1024, out_features=3072, bias=True)\n        (attn_drop): Dropout(p=0.0, inplace=False)\n        (proj): Linear(in_features=1024, out_features=1024, bias=True)\n        (proj_drop): Dropout(p=0.0, inplace=False)\n      )\n      (drop_path): DropPath()\n      (norm2): LayerNorm((1024,), eps=1e-06, elementwise_affine=True)\n      (mlp): Mlp(\n        (fc1): Linear(in_features=1024, out_features=4096, bias=True)\n        (act): GELU(approximate='none')\n        (fc2): Linear(in_features=4096, out_features=1024, bias=True)\n        (drop): Dropout(p=0.0, inplace=False)\n      )\n    )\n    (4): Block(\n      (norm1): LayerNorm((1024,), eps=1e-06, elementwise_affine=True)\n      (attn): Attention(\n        (qkv): Linear(in_features=1024, out_features=3072, bias=True)\n        (attn_drop): Dropout(p=0.0, inplace=False)\n        (proj): Linear(in_features=1024, out_features=1024, bias=True)\n        (proj_drop): Dropout(p=0.0, inplace=False)\n      )\n      (drop_path): DropPath()\n      (norm2): LayerNorm((1024,), eps=1e-06, elementwise_affine=True)\n      (mlp): Mlp(\n        (fc1): Linear(in_features=1024, out_features=4096, bias=True)\n        (act): GELU(approximate='none')\n        (fc2): Linear(in_features=4096, out_features=1024, bias=True)\n        (drop): Dropout(p=0.0, inplace=False)\n      )\n    )\n    (5): Block(\n      (norm1): LayerNorm((1024,), eps=1e-06, elementwise_affine=True)\n      (attn): Attention(\n        (qkv): Linear(in_features=1024, out_features=3072, bias=True)\n        (attn_drop): Dropout(p=0.0, inplace=False)\n        (proj): Linear(in_features=1024, out_features=1024, bias=True)\n        (proj_drop): Dropout(p=0.0, inplace=False)\n      )\n      (drop_path): DropPath()\n      (norm2): LayerNorm((1024,), eps=1e-06, elementwise_affine=True)\n      (mlp): Mlp(\n        (fc1): Linear(in_features=1024, out_features=4096, bias=True)\n        (act): GELU(approximate='none')\n        (fc2): Linear(in_features=4096, out_features=1024, bias=True)\n        (drop): Dropout(p=0.0, inplace=False)\n      )\n    )\n    (6): Block(\n      (norm1): LayerNorm((1024,), eps=1e-06, elementwise_affine=True)\n      (attn): Attention(\n        (qkv): Linear(in_features=1024, out_features=3072, bias=True)\n        (attn_drop): Dropout(p=0.0, inplace=False)\n        (proj): Linear(in_features=1024, out_features=1024, bias=True)\n        (proj_drop): Dropout(p=0.0, inplace=False)\n      )\n      (drop_path): DropPath()\n      (norm2): LayerNorm((1024,), eps=1e-06, elementwise_affine=True)\n      (mlp): Mlp(\n        (fc1): Linear(in_features=1024, out_features=4096, bias=True)\n        (act): GELU(approximate='none')\n        (fc2): Linear(in_features=4096, out_features=1024, bias=True)\n        (drop): Dropout(p=0.0, inplace=False)\n      )\n    )\n    (7): Block(\n      (norm1): LayerNorm((1024,), eps=1e-06, elementwise_affine=True)\n      (attn): Attention(\n        (qkv): Linear(in_features=1024, out_features=3072, bias=True)\n        (attn_drop): Dropout(p=0.0, inplace=False)\n        (proj): Linear(in_features=1024, out_features=1024, bias=True)\n        (proj_drop): Dropout(p=0.0, inplace=False)\n      )\n      (drop_path): DropPath()\n      (norm2): LayerNorm((1024,), eps=1e-06, elementwise_affine=True)\n      (mlp): Mlp(\n        (fc1): Linear(in_features=1024, out_features=4096, bias=True)\n        (act): GELU(approximate='none')\n        (fc2): Linear(in_features=4096, out_features=1024, bias=True)\n        (drop): Dropout(p=0.0, inplace=False)\n      )\n    )\n    (8): Block(\n      (norm1): LayerNorm((1024,), eps=1e-06, elementwise_affine=True)\n      (attn): Attention(\n        (qkv): Linear(in_features=1024, out_features=3072, bias=True)\n        (attn_drop): Dropout(p=0.0, inplace=False)\n        (proj): Linear(in_features=1024, out_features=1024, bias=True)\n        (proj_drop): Dropout(p=0.0, inplace=False)\n      )\n      (drop_path): DropPath()\n      (norm2): LayerNorm((1024,), eps=1e-06, elementwise_affine=True)\n      (mlp): Mlp(\n        (fc1): Linear(in_features=1024, out_features=4096, bias=True)\n        (act): GELU(approximate='none')\n        (fc2): Linear(in_features=4096, out_features=1024, bias=True)\n        (drop): Dropout(p=0.0, inplace=False)\n      )\n    )\n    (9): Block(\n      (norm1): LayerNorm((1024,), eps=1e-06, elementwise_affine=True)\n      (attn): Attention(\n        (qkv): Linear(in_features=1024, out_features=3072, bias=True)\n        (attn_drop): Dropout(p=0.0, inplace=False)\n        (proj): Linear(in_features=1024, out_features=1024, bias=True)\n        (proj_drop): Dropout(p=0.0, inplace=False)\n      )\n      (drop_path): DropPath()\n      (norm2): LayerNorm((1024,), eps=1e-06, elementwise_affine=True)\n      (mlp): Mlp(\n        (fc1): Linear(in_features=1024, out_features=4096, bias=True)\n        (act): GELU(approximate='none')\n        (fc2): Linear(in_features=4096, out_features=1024, bias=True)\n        (drop): Dropout(p=0.0, inplace=False)\n      )\n    )\n    (10): Block(\n      (norm1): LayerNorm((1024,), eps=1e-06, elementwise_affine=True)\n      (attn): Attention(\n        (qkv): Linear(in_features=1024, out_features=3072, bias=True)\n        (attn_drop): Dropout(p=0.0, inplace=False)\n        (proj): Linear(in_features=1024, out_features=1024, bias=True)\n        (proj_drop): Dropout(p=0.0, inplace=False)\n      )\n      (drop_path): DropPath()\n      (norm2): LayerNorm((1024,), eps=1e-06, elementwise_affine=True)\n      (mlp): Mlp(\n        (fc1): Linear(in_features=1024, out_features=4096, bias=True)\n        (act): GELU(approximate='none')\n        (fc2): Linear(in_features=4096, out_features=1024, bias=True)\n        (drop): Dropout(p=0.0, inplace=False)\n      )\n    )\n    (11): Block(\n      (norm1): LayerNorm((1024,), eps=1e-06, elementwise_affine=True)\n      (attn): Attention(\n        (qkv): Linear(in_features=1024, out_features=3072, bias=True)\n        (attn_drop): Dropout(p=0.0, inplace=False)\n        (proj): Linear(in_features=1024, out_features=1024, bias=True)\n        (proj_drop): Dropout(p=0.0, inplace=False)\n      )\n      (drop_path): DropPath()\n      (norm2): LayerNorm((1024,), eps=1e-06, elementwise_affine=True)\n      (mlp): Mlp(\n        (fc1): Linear(in_features=1024, out_features=4096, bias=True)\n        (act): GELU(approximate='none')\n        (fc2): Linear(in_features=4096, out_features=1024, bias=True)\n        (drop): Dropout(p=0.0, inplace=False)\n      )\n    )\n    (12): Block(\n      (norm1): LayerNorm((1024,), eps=1e-06, elementwise_affine=True)\n      (attn): Attention(\n        (qkv): Linear(in_features=1024, out_features=3072, bias=True)\n        (attn_drop): Dropout(p=0.0, inplace=False)\n        (proj): Linear(in_features=1024, out_features=1024, bias=True)\n        (proj_drop): Dropout(p=0.0, inplace=False)\n      )\n      (drop_path): DropPath()\n      (norm2): LayerNorm((1024,), eps=1e-06, elementwise_affine=True)\n      (mlp): Mlp(\n        (fc1): Linear(in_features=1024, out_features=4096, bias=True)\n        (act): GELU(approximate='none')\n        (fc2): Linear(in_features=4096, out_features=1024, bias=True)\n        (drop): Dropout(p=0.0, inplace=False)\n      )\n    )\n    (13): Block(\n      (norm1): LayerNorm((1024,), eps=1e-06, elementwise_affine=True)\n      (attn): Attention(\n        (qkv): Linear(in_features=1024, out_features=3072, bias=True)\n        (attn_drop): Dropout(p=0.0, inplace=False)\n        (proj): Linear(in_features=1024, out_features=1024, bias=True)\n        (proj_drop): Dropout(p=0.0, inplace=False)\n      )\n      (drop_path): DropPath()\n      (norm2): LayerNorm((1024,), eps=1e-06, elementwise_affine=True)\n      (mlp): Mlp(\n        (fc1): Linear(in_features=1024, out_features=4096, bias=True)\n        (act): GELU(approximate='none')\n        (fc2): Linear(in_features=4096, out_features=1024, bias=True)\n        (drop): Dropout(p=0.0, inplace=False)\n      )\n    )\n    (14): Block(\n      (norm1): LayerNorm((1024,), eps=1e-06, elementwise_affine=True)\n      (attn): Attention(\n        (qkv): Linear(in_features=1024, out_features=3072, bias=True)\n        (attn_drop): Dropout(p=0.0, inplace=False)\n        (proj): Linear(in_features=1024, out_features=1024, bias=True)\n        (proj_drop): Dropout(p=0.0, inplace=False)\n      )\n      (drop_path): DropPath()\n      (norm2): LayerNorm((1024,), eps=1e-06, elementwise_affine=True)\n      (mlp): Mlp(\n        (fc1): Linear(in_features=1024, out_features=4096, bias=True)\n        (act): GELU(approximate='none')\n        (fc2): Linear(in_features=4096, out_features=1024, bias=True)\n        (drop): Dropout(p=0.0, inplace=False)\n      )\n    )\n    (15): Block(\n      (norm1): LayerNorm((1024,), eps=1e-06, elementwise_affine=True)\n      (attn): Attention(\n        (qkv): Linear(in_features=1024, out_features=3072, bias=True)\n        (attn_drop): Dropout(p=0.0, inplace=False)\n        (proj): Linear(in_features=1024, out_features=1024, bias=True)\n        (proj_drop): Dropout(p=0.0, inplace=False)\n      )\n      (drop_path): DropPath()\n      (norm2): LayerNorm((1024,), eps=1e-06, elementwise_affine=True)\n      (mlp): Mlp(\n        (fc1): Linear(in_features=1024, out_features=4096, bias=True)\n        (act): GELU(approximate='none')\n        (fc2): Linear(in_features=4096, out_features=1024, bias=True)\n        (drop): Dropout(p=0.0, inplace=False)\n      )\n    )\n    (16): Block(\n      (norm1): LayerNorm((1024,), eps=1e-06, elementwise_affine=True)\n      (attn): Attention(\n        (qkv): Linear(in_features=1024, out_features=3072, bias=True)\n        (attn_drop): Dropout(p=0.0, inplace=False)\n        (proj): Linear(in_features=1024, out_features=1024, bias=True)\n        (proj_drop): Dropout(p=0.0, inplace=False)\n      )\n      (drop_path): DropPath()\n      (norm2): LayerNorm((1024,), eps=1e-06, elementwise_affine=True)\n      (mlp): Mlp(\n        (fc1): Linear(in_features=1024, out_features=4096, bias=True)\n        (act): GELU(approximate='none')\n        (fc2): Linear(in_features=4096, out_features=1024, bias=True)\n        (drop): Dropout(p=0.0, inplace=False)\n      )\n    )\n    (17): Block(\n      (norm1): LayerNorm((1024,), eps=1e-06, elementwise_affine=True)\n      (attn): Attention(\n        (qkv): Linear(in_features=1024, out_features=3072, bias=True)\n        (attn_drop): Dropout(p=0.0, inplace=False)\n        (proj): Linear(in_features=1024, out_features=1024, bias=True)\n        (proj_drop): Dropout(p=0.0, inplace=False)\n      )\n      (drop_path): DropPath()\n      (norm2): LayerNorm((1024,), eps=1e-06, elementwise_affine=True)\n      (mlp): Mlp(\n        (fc1): Linear(in_features=1024, out_features=4096, bias=True)\n        (act): GELU(approximate='none')\n        (fc2): Linear(in_features=4096, out_features=1024, bias=True)\n        (drop): Dropout(p=0.0, inplace=False)\n      )\n    )\n    (18): Block(\n      (norm1): LayerNorm((1024,), eps=1e-06, elementwise_affine=True)\n      (attn): Attention(\n        (qkv): Linear(in_features=1024, out_features=3072, bias=True)\n        (attn_drop): Dropout(p=0.0, inplace=False)\n        (proj): Linear(in_features=1024, out_features=1024, bias=True)\n        (proj_drop): Dropout(p=0.0, inplace=False)\n      )\n      (drop_path): DropPath()\n      (norm2): LayerNorm((1024,), eps=1e-06, elementwise_affine=True)\n      (mlp): Mlp(\n        (fc1): Linear(in_features=1024, out_features=4096, bias=True)\n        (act): GELU(approximate='none')\n        (fc2): Linear(in_features=4096, out_features=1024, bias=True)\n        (drop): Dropout(p=0.0, inplace=False)\n      )\n    )\n    (19): Block(\n      (norm1): LayerNorm((1024,), eps=1e-06, elementwise_affine=True)\n      (attn): Attention(\n        (qkv): Linear(in_features=1024, out_features=3072, bias=True)\n        (attn_drop): Dropout(p=0.0, inplace=False)\n        (proj): Linear(in_features=1024, out_features=1024, bias=True)\n        (proj_drop): Dropout(p=0.0, inplace=False)\n      )\n      (drop_path): DropPath()\n      (norm2): LayerNorm((1024,), eps=1e-06, elementwise_affine=True)\n      (mlp): Mlp(\n        (fc1): Linear(in_features=1024, out_features=4096, bias=True)\n        (act): GELU(approximate='none')\n        (fc2): Linear(in_features=4096, out_features=1024, bias=True)\n        (drop): Dropout(p=0.0, inplace=False)\n      )\n    )\n    (20): Block(\n      (norm1): LayerNorm((1024,), eps=1e-06, elementwise_affine=True)\n      (attn): Attention(\n        (qkv): Linear(in_features=1024, out_features=3072, bias=True)\n        (attn_drop): Dropout(p=0.0, inplace=False)\n        (proj): Linear(in_features=1024, out_features=1024, bias=True)\n        (proj_drop): Dropout(p=0.0, inplace=False)\n      )\n      (drop_path): DropPath()\n      (norm2): LayerNorm((1024,), eps=1e-06, elementwise_affine=True)\n      (mlp): Mlp(\n        (fc1): Linear(in_features=1024, out_features=4096, bias=True)\n        (act): GELU(approximate='none')\n        (fc2): Linear(in_features=4096, out_features=1024, bias=True)\n        (drop): Dropout(p=0.0, inplace=False)\n      )\n    )\n    (21): Block(\n      (norm1): LayerNorm((1024,), eps=1e-06, elementwise_affine=True)\n      (attn): Attention(\n        (qkv): Linear(in_features=1024, out_features=3072, bias=True)\n        (attn_drop): Dropout(p=0.0, inplace=False)\n        (proj): Linear(in_features=1024, out_features=1024, bias=True)\n        (proj_drop): Dropout(p=0.0, inplace=False)\n      )\n      (drop_path): DropPath()\n      (norm2): LayerNorm((1024,), eps=1e-06, elementwise_affine=True)\n      (mlp): Mlp(\n        (fc1): Linear(in_features=1024, out_features=4096, bias=True)\n        (act): GELU(approximate='none')\n        (fc2): Linear(in_features=4096, out_features=1024, bias=True)\n        (drop): Dropout(p=0.0, inplace=False)\n      )\n    )\n    (22): Block(\n      (norm1): LayerNorm((1024,), eps=1e-06, elementwise_affine=True)\n      (attn): Attention(\n        (qkv): Linear(in_features=1024, out_features=3072, bias=True)\n        (attn_drop): Dropout(p=0.0, inplace=False)\n        (proj): Linear(in_features=1024, out_features=1024, bias=True)\n        (proj_drop): Dropout(p=0.0, inplace=False)\n      )\n      (drop_path): DropPath()\n      (norm2): LayerNorm((1024,), eps=1e-06, elementwise_affine=True)\n      (mlp): Mlp(\n        (fc1): Linear(in_features=1024, out_features=4096, bias=True)\n        (act): GELU(approximate='none')\n        (fc2): Linear(in_features=4096, out_features=1024, bias=True)\n        (drop): Dropout(p=0.0, inplace=False)\n      )\n    )\n    (23): Block(\n      (norm1): LayerNorm((1024,), eps=1e-06, elementwise_affine=True)\n      (attn): Attention(\n        (qkv): Linear(in_features=1024, out_features=3072, bias=True)\n        (attn_drop): Dropout(p=0.0, inplace=False)\n        (proj): Linear(in_features=1024, out_features=1024, bias=True)\n        (proj_drop): Dropout(p=0.0, inplace=False)\n      )\n      (drop_path): DropPath()\n      (norm2): LayerNorm((1024,), eps=1e-06, elementwise_affine=True)\n      (mlp): Mlp(\n        (fc1): Linear(in_features=1024, out_features=4096, bias=True)\n        (act): GELU(approximate='none')\n        (fc2): Linear(in_features=4096, out_features=1024, bias=True)\n        (drop): Dropout(p=0.0, inplace=False)\n      )\n    )\n  )\n  (norm): LayerNorm((1024,), eps=1e-06, elementwise_affine=True)\n  (pre_logits): Identity()\n  (head): Linear(in_features=1024, out_features=2, bias=True)\n)", "parameters": [["cls_token", [1, 1, 1024]], ["pos_embed", [1, 401, 768]], ["channel_embed", [1, 3, 256]], ["channel_cls_embed", [1, 1, 256]], ["patch_embed.0.proj.weight", [1024, 4, 8, 8]], ["patch_embed.0.proj.bias", [1024]], ["patch_embed.1.proj.weight", [1024, 4, 8, 8]], ["patch_embed.1.proj.bias", [1024]], ["patch_embed.2.proj.weight", [1024, 2
…
